{"architecture":{"class_name":"Functional","config":{"name":"model_7","layers":[{"class_name":"InputLayer","config":{"batch_input_shape":[null,8,8,12],"dtype":"float32","sparse":false,"ragged":false,"name":"input_8"},"name":"input_8","inbound_nodes":[]},{"class_name":"Conv2D","config":{"name":"conv2d_34","trainable":true,"dtype":"float32","filters":64,"kernel_size":[3,3],"strides":[1,1],"padding":"same","data_format":"channels_last","dilation_rate":[1,1],"groups":1,"activation":"linear","use_bias":true,"kernel_initializer":{"class_name":"GlorotUniform","config":{"seed":null}},"bias_initializer":{"class_name":"Zeros","config":{}},"kernel_regularizer":null,"bias_regularizer":null,"activity_regularizer":null,"kernel_constraint":null,"bias_constraint":null},"name":"conv2d_34","inbound_nodes":[[["input_8",0,0,{}]]]},{"class_name":"Conv2D","config":{"name":"conv2d_36","trainable":true,"dtype":"float32","filters":64,"kernel_size":[3,3],"strides":[1,1],"padding":"same","data_format":"channels_last","dilation_rate":[1,1],"groups":1,"activation":"linear","use_bias":true,"kernel_initializer":{"class_name":"GlorotUniform","config":{"seed":null}},"bias_initializer":{"class_name":"Zeros","config":{}},"kernel_regularizer":null,"bias_regularizer":null,"activity_regularizer":null,"kernel_constraint":null,"bias_constraint":null},"name":"conv2d_36","inbound_nodes":[[["conv2d_34",0,0,{}]]]},{"class_name":"Dense","config":{"name":"dense_29","trainable":true,"dtype":"float32","units":64,"activation":"relu","use_bias":true,"kernel_initializer":{"class_name":"GlorotUniform","config":{"seed":null}},"bias_initializer":{"class_name":"Zeros","config":{}},"kernel_regularizer":null,"bias_regularizer":null,"activity_regularizer":null,"kernel_constraint":null,"bias_constraint":null},"name":"dense_29","inbound_nodes":[[["conv2d_36",0,0,{}]]]},{"class_name":"Conv2D","config":{"name":"conv2d_35","trainable":true,"dtype":"float32","filters":64,"kernel_size":[1,1],"strides":[1,1],"padding":"valid","data_format":"channels_last","dilation_rate":[1,1],"groups":1,"activation":"linear","use_bias":true,"kernel_initializer":{"class_name":"GlorotUniform","config":{"seed":null}},"bias_initializer":{"class_name":"Zeros","config":{}},"kernel_regularizer":null,"bias_regularizer":null,"activity_regularizer":null,"kernel_constraint":null,"bias_constraint":null},"name":"conv2d_35","inbound_nodes":[[["conv2d_34",0,0,{}]]]},{"class_name":"Add","config":{"name":"add_15","trainable":true,"dtype":"float32"},"name":"add_15","inbound_nodes":[[["dense_29",0,0,{}],["conv2d_35",0,0,{}]]]},{"class_name":"Activation","config":{"name":"activation_15","trainable":true,"dtype":"float32","activation":"relu"},"name":"activation_15","inbound_nodes":[[["add_15",0,0,{}]]]},{"class_name":"Conv2D","config":{"name":"conv2d_38","trainable":true,"dtype":"float32","filters":64,"kernel_size":[3,3],"strides":[1,1],"padding":"same","data_format":"channels_last","dilation_rate":[1,1],"groups":1,"activation":"linear","use_bias":true,"kernel_initializer":{"class_name":"GlorotUniform","config":{"seed":null}},"bias_initializer":{"class_name":"Zeros","config":{}},"kernel_regularizer":null,"bias_regularizer":null,"activity_regularizer":null,"kernel_constraint":null,"bias_constraint":null},"name":"conv2d_38","inbound_nodes":[[["activation_15",0,0,{}]]]},{"class_name":"Dense","config":{"name":"dense_30","trainable":true,"dtype":"float32","units":64,"activation":"relu","use_bias":true,"kernel_initializer":{"class_name":"GlorotUniform","config":{"seed":null}},"bias_initializer":{"class_name":"Zeros","config":{}},"kernel_regularizer":null,"bias_regularizer":null,"activity_regularizer":null,"kernel_constraint":null,"bias_constraint":null},"name":"dense_30","inbound_nodes":[[["conv2d_38",0,0,{}]]]},{"class_name":"Conv2D","config":{"name":"conv2d_37","trainable":true,"dtype":"float32","filters":64,"kernel_size":[1,1],"strides":[1,1],"padding":"valid","data_format":"channels_last","dilation_rate":[1,1],"groups":1,"activation":"linear","use_bias":true,"kernel_initializer":{"class_name":"GlorotUniform","config":{"seed":null}},"bias_initializer":{"class_name":"Zeros","config":{}},"kernel_regularizer":null,"bias_regularizer":null,"activity_regularizer":null,"kernel_constraint":null,"bias_constraint":null},"name":"conv2d_37","inbound_nodes":[[["activation_15",0,0,{}]]]},{"class_name":"Add","config":{"name":"add_16","trainable":true,"dtype":"float32"},"name":"add_16","inbound_nodes":[[["dense_30",0,0,{}],["conv2d_37",0,0,{}]]]},{"class_name":"Activation","config":{"name":"activation_16","trainable":true,"dtype":"float32","activation":"relu"},"name":"activation_16","inbound_nodes":[[["add_16",0,0,{}]]]},{"class_name":"Conv2D","config":{"name":"conv2d_39","trainable":true,"dtype":"float32","filters":32,"kernel_size":[3,3],"strides":[1,1],"padding":"valid","data_format":"channels_last","dilation_rate":[1,1],"groups":1,"activation":"linear","use_bias":true,"kernel_initializer":{"class_name":"GlorotUniform","config":{"seed":null}},"bias_initializer":{"class_name":"Zeros","config":{}},"kernel_regularizer":null,"bias_regularizer":null,"activity_regularizer":null,"kernel_constraint":null,"bias_constraint":null},"name":"conv2d_39","inbound_nodes":[[["activation_16",0,0,{}]]]},{"class_name":"Flatten","config":{"name":"flatten_7","trainable":true,"dtype":"float32","data_format":"channels_last"},"name":"flatten_7","inbound_nodes":[[["conv2d_39",0,0,{}]]]},{"class_name":"Dense","config":{"name":"dense_31","trainable":true,"dtype":"float32","units":64,"activation":"relu","use_bias":true,"kernel_initializer":{"class_name":"GlorotUniform","config":{"seed":null}},"bias_initializer":{"class_name":"Zeros","config":{}},"kernel_regularizer":null,"bias_regularizer":null,"activity_regularizer":null,"kernel_constraint":null,"bias_constraint":null},"name":"dense_31","inbound_nodes":[[["flatten_7",0,0,{}]]]},{"class_name":"Dense","config":{"name":"dense_32","trainable":true,"dtype":"float32","units":1,"activation":"sigmoid","use_bias":true,"kernel_initializer":{"class_name":"GlorotUniform","config":{"seed":null}},"bias_initializer":{"class_name":"Zeros","config":{}},"kernel_regularizer":null,"bias_regularizer":null,"activity_regularizer":null,"kernel_constraint":null,"bias_constraint":null},"name":"dense_32","inbound_nodes":[[["dense_31",0,0,{}]]]}],"input_layers":[["input_8",0,0]],"output_layers":[["dense_32",0,0]]},"keras_version":"2.9.0","backend":"tensorflow"},"image_data_format":"channels_last","input_shapes":[[8,8,12]],"output_shapes":[[1]],"tests":[{"inputs":[{"shape":[8,8,12],"values":["…","…","…","…"]}],"outputs":[{"shape":[1],"values":["Jm3LEQ=="]}]}],"trainable_params":{"conv2d_34":{"weights":["…","…","…","…","…","…","…","…","…","…","…","…","…","…","…","…","…","…","…","…","…","…","…","…","…","…","…","…","…","…","…","…","…","…","…","…"],"bias":["…"]},"conv2d_36":{"weights":["…","…","…","…","…","…","…","…","…","…","…","…","…","…","…","…","…","…","…","…","…","…","…","…","…","…","…","…","…","…","…","…","…","…","…","…","…","…","…","…","…","…","…","…","…","…","…","…","…","…","…","…","…","…","…","…","…","…","…","…","…","…","…","…","…","…","…","…","…","…","…","…","…","…","…","…","…","…","…","…","…","…","…","…","…","…","…","…","…","…","…","…","…","…","…","…","…","…","…","…","…","…","…","…","…","…","…","…","…","…","…","…","…","…","…","…","…","…","…","…","…","…","…","…","…","…","…","…","…","…","…","…","…","…","…","…","…","…","…","…","…","…","…","…","…","…","…","…","…","…","…","…","…","…","…","…","…","…","…","…","…","…","…","…","…","…","…","…","…","…","…","…","…","…","…","…","…","…","…","…","…","…","…","…","…","…","…","…","…","…","…","…"],"bias":["…"]},"dense_29":{"weights":["…","…","…","…","…","…","…","…","…","…","…","…","…","…","…","…","…","…","…","…","…","…"],"bias":["…"]},"conv2d_35":{"weights":["…","…","…","…","…","…","…","…","…","…","…","…","…","…","…","…","…","…","…","…","…","…"],"bias":["…"]},"conv2d_38":{"weights":["…","…","…","…","…","…","…","…","…","…","…","…","…","…","…","…","…","…","…","…","…","…","…","…","…","…","…","…","…","…","…","…","…","…","…","…","…","…","…","…","…","…","…","…","…","…","…","…","…","…","…","…","…","…","…","…","…","…","…","…","…","…","…","…","…","…","…","…","…","…","…","…","…","…","…","…","…","…","…","…","…","…","…","…","…","…","…","…","…","…","…","…","…","…","…","…","…","…","…","…","…","…","…","…","…","…","…","…","…","…","…","…","…","…","…","…","…","…","…","…","…","…","…","…","…","…","…","…","…","…","…","…","…","…","…","…","…","…","…","…","…","…","…","…","…","…","…","…","…","…","…","…","…","…","…","…","…","…","…","…","…","…","…","…","…","…","…","…","…","…","…","…","…","…","…","…","…","…","…","…","…","…","…","…","…","…","…","…","…","…","…","…"],"bias":["…"]},"dense_30":{"weights":["…","…","…","…","…","…","…","…","…","…","…","…","…","…","…","…","…","…","…","…","…","…"],"bias":["…"]},"conv2d_37":{"weights":["…","…","…","…","…","…","…","…","…","…","…","…","…","…","…","…","…","…","…","…","…","…"],"bias":["…"]},"conv2d_39":{"weights":["…","…","…","…","…","…","…","…","…","…","…","…","…","…","…","…","…","…","…","…","…","…","…","…","…","…","…","…","…","…","…","…","…","…","…","…","…","…","…","…","…","…","…","…","…","…","…","…","…","…","…","…","…","…","…","…","…","…","…","…","…","…","…","…","…","…","…","…","…","…","…","…","…","…","…","…","…","…","…","…","…","…","…","…","…","…","…","…","…","…","…","…","…","…","…","…"],"bias":["ZxWmPdlSoj02bgE+DEOAvZ8NRb3iYd695mF0PXHPMz5boqC8Br18vlpmyTw32pm8hGMhvuGLNL0Jh9m9XYpSPcJ8271r0Fe9Ezf7vMgzJD2nRYO9Hx6JOygQ8L13GwM9jlbBvFpLvTxue/S9Z1ORPi1ahbuZ48c99e63vOWk+z0="]},"dense_31":{"weights":["…","…","…","…","…","…","…","…","…","…","…","…","…","…","…","…","…","…","…","…","…","…","…","…","…","…","…","…","…","…","…","…","…","…","…","…","…","…","…","…","…","…","…","…","…","…","…","…","…","…","…","…","…","…","…","…","…","…","…","…","…","…","…","…","…","…","…","…","…","…","…","…","…","…","…","…","…","…","…","…","…","…","…","…","…","…","…","…","…","…","…","…","…","…","…","…","…","…","…","…","…","…","…","…","…","…","…","…","…","…","…","…","…","…","…","…","…","…","…","…","…","…","…","…","…","…","…","…","…","…","…","…","…","…","…","…","…","…","…","…","…","…","…","…","…","…","…","…","…","…","…","…","…","…","…","…","…","…","…","…","…","…","…","…","…","…","…","…","…","…","…","…","…","…","…","…","…","…","…","…","…","…","…","…","…","…","…","…","…","…","…","…","…","…","…","…","…","…","…","…","…","…","…","…","…","…","…","…","…","…","…","…","…","…","…","…","…","…","…","…","…","…","…","…","…","…","…","…","…","…","…","…","…","…","…","…","…","…","…","…","…","…","…","…","…","…","…","…","…","…","…","…","…","…","…","…","…","…","…","…","…","…","…","…","…","…","…","…","…","…","…","…","…","…","…","…","…","…","…","…","…","…","…","…","…","…","…","…","…","…","…","…","…","…","…","…","…","…","…","…","…","…","…","…","…","…","…","…","…","…","…","…","…","…","…","…","…","…","…","…","…","…","…","…","…","…","…","…","…","…","…","…","…","…","…","…","…","…","…","…","…","…","…","…","…","…","…","…","…","…","…","…","…","…","…","…","…","…","…","…","…","…","…","…","…","…","…","…","…","…","…","…","…","…","…","…","…","…","…","…","…","…","…","…"],"bias":["…"]},"dense_32":{"weights":["…"],"bias":["mAqMOw=="]}},"hash":"e46febe98d5eb37e3d910f765d757d8ab8dc45fdf3691b174c7c1972a8acfcbf"}